ppo_best_model_paper.pth (torch, 144386 bytes, 11 tensors)

actor.0.weight f4 [128, 5]
000000 21 79 37 3f fc 5f a9 3e e7 3e 8d be 45 5d 3b 3e
       0.71669203 0.33081043 -0.27587053 0.18297298
000010 d5 42 81 be 8f fc a9 be 16 e3 c7 3e 70 bf 8f 3f
       -0.252463 -0.332005 0.3904044 1.1230297
000020 ca 70 7c 3e 3e cd 31 bf 1a 70 77 be 01 bc 69 be
       0.246524 -0.694538 -0.24163857 -0.22825624
000030 ac 4e 05 be 48 21 05 3e 7e 80 99 be 9f fd cd be
       -0.13018292 0.13000977 -0.29980844 -0.4023256
000040 f7 cd 15 3f be 61 99 bd 8d 5b 86 be 1c 83 a0 3d
       0.585174 -0.07489346 -0.26241723 0.07837507
000050 d6 a3 22 bc ad da 18 bf f9 36 16 3e 05 85 85 be
       -0.009926757 -0.5970867 0.14669408 -0.26078048
000060 df ad b9 be 18 c2 97 ba 69 b4 c2 bd 90 3a 25 bf
       -0.36265466 -0.001157823 -0.09507067 -0.64542484
000070 32 e1 77 3e 08 f7 21 bf 9a 54 1f be 24 a8 fb be
       0.24206999 -0.63267565 -0.15559617 -0.4915172
000080 31 a6 50 3e aa 31 9f 3e 07 02 14 3f e2 50 98 3d
       0.20375897 0.31092578 0.57815593 0.07437302
000090 3e 96 8e 3e 3a 05 04 3d da 9b e2 be f6 02 9b bd
       0.27849 0.032231547 -0.4425953 -0.07568924
0000a0 3b e8 9d 3e 2c f9 7f bd ad 5b 93 bf 9b 0d 1e bf
       0.3084124 -0.06249349 -1.1512352 -0.6173951
0000b0 7b 10 a0 bf b0 89 ca bc d1 62 97 be 97 fa f6 3e
       -1.250503 -0.024723858 -0.29567578 0.4823806
0000c0 52 16 3f 3f 7c cb 16 3f e8 70 9d be ec de d5 be
       0.74643433 0.5890424 -0.30750203 -0.41771638
0000d0 e0 cc 30 3d c5 3e b6 be b0 65 29 be a6 2e bd bd
       0.043164134 -0.35594764 -0.16542697 -0.09237413
0000e0 ef 09 85 3e 85 85 cd be 3c 76 d4 bf 5e 10 3d c0
       0.2598414 -0.4014093 -1.6598582 -2.954124
0000f0 d7 5f 40 3d 84 59 e5 3e fc 3f f1 bd 84 48 e9 3c
       0.0469664 0.44794858 -0.11779782 0.028476961
000100 35 ff 66 bf 41 f0 b7 bc d0 23 e5 3e 61 b6 40 3e
       -0.90233165 -0.02245343 0.44753885 0.18819572
000110 56 03 23 3f 8e 54 fe be 0d d1 8a 3d ef 96 c9 bd
       0.63676965 -0.49673885 0.067781545 -0.098432414
000120 d2 63 87 3f 21 22 e6 3f 82 ca 90 3e dc cc c5 3c
       1.0577338 1.7979165 0.282795 0.024145536
000130 15 93 b2 3e d9 f4 22 bf b8 2f d3 3b 20 1d 1e bf
       0.3487784 -0.6365486 0.0064448975 -0.6176319
000140 43 2a be be bc 51 aa 3e a4 c9 22 3f 6e c2 10 bf
       -0.37141618 0.33265483 0.6358893 -0.56546676
000150 d7 cc a5 bf 5d b9 aa 3d 02 4d 8e 3e c3 20 62 be
       -1.2953137 0.083361365 0.27793127 -0.2208281
000160 64 ea 70 bf f7 d0 54 bd ca bf e1 3e 84 04 d5 be
       -0.9410765 -0.051957097 0.44091636 -0.41605008
000170 c6 45 40 3e ad ee 09 3f ee bf 9d 3f b8 e5 14 bf
       0.18776616 0.53879815 1.2324197 -0.58163023
000180 ce 6d 3a 3e 34 f1 6e 3d 79 cc 5f 3e 56 e2 89 3d
       0.1820595 0.058335498 0.21855344 0.06732623
000190 7e 26 b2 bd f1 1d d5 3e ec 69 90 3e 3b 7a 75 3f
       -0.08698748 0.41624406 0.28205812 0.95889634
0001a0 be 03 b0 bf be 1d 0b 39 81 31 95 be 46 a3 2e 3f
       -1.3751142 0.00013267153 -0.2913933 0.68217885
0001b0 c6 e7 5e 3e 31 4e 1c bf c5 41 cc be a3 e5 b0 3e
       0.21768102 -0.6105681 -0.39893928 0.345502
0001c0 e9 1f c1 3e d5 83 27 bf 9c d5 2f 3e 97 58 2b 3d
       0.37719658 -0.65435535 0.1717133 0.041832533
0001d0 c6 40 92 be 31 ab e7 3f fa 66 df 3f 11 fd 12 3f
       -0.28565043 1.8099118 1.7453301 0.574174
0001e0 89 6d 36 be 16 6c f4 3e 04 4d 1e be f9 a0 2b bf
       -0.17815222 0.47738713 -0.15459067 -0.670425
0001f0 46 a9 03 bf a6 ce 69 3d 04 36 b0 3e ae 79 b3 bd
       -0.51430166 0.05708184 0.3441621 -0.08763443
000200 72 f8 5a bd 91 42 f8 3e f0 5e 3d bf 11 a9 2f 3e
       -0.053459592 0.48488286 -0.7397299 0.17154337
000210 d8 fa e5 3e e3 b4 6c bd 97 7f 80 be 2b fd af 3d
       0.4491794 -0.057789695 -0.25097343 0.0859321
000220 2c 63 8c be 55 ca d0 3f d9 bd 06 bf 9c d0 bc bf
       -0.27419412 1.6311747 -0.52633435 -1.4751163
000230 1b 9f 92 bf 3d 1f 82 3d 27 e8 25 3f be 20 06 be
       -1.1454805 0.063536145 0.6480736 -0.13098428
000240 79 5f 1d bf 9b e2 a3 3e 5c 2b be 3e a5 33 c7 be
       -0.61473805 0.32008824 0.37142456 -0.3890659
000250 64 c4 98 3e 46 1d b0 3f c0 e3 f3 3c 2f 18 30 3e
       0.29837334 1.3758934 0.029771686 0.17196725
000260 0d 75 10 3e 5d 8b 94 3e 32 a2 0a bf 74 df 6e bd
       0.14107151 0.29012576 -0.5415374 -0.05831857
000270 69 1a de be 63 60 2e bf 5d 38 51 3f 5e 70 ee 3e
       -0.43379524 -0.68115824 0.8172663 0.46570104
000280 95 b4 e2 3d 7c ab 93 3e bc cd c0 be f9 b4 27 3d
       0.110695995 0.2884177 -0.37656963 0.040944073
000290 ea 1a 5f 3f 78 c2 da be 84 9d b6 be c8 37 b9 be
       0.8715044 -0.42726493 -0.3566705 -0.3617537
0002a0 ee 58 af 3e 00 20 cb bc 7c 4d 84 3b 2d e9 d5 be
       0.34247535 -0.024795532 0.004037557 -0.41779462
0002b0 ec 8c 59 be 95 af 81 3e 12 82 2a be 26 66 7a be
       -0.21245164 0.2532927 -0.1665118 -0.24453029
0002c0 4d b4 00 bf 12 b3 ae 3e 85 8a de 3e 0b 7b 4e 3f
       -0.5027512 0.34120995 0.43465057 0.806565
0002d0 d0 34 a0 be d0 69 72 be 50 66 32 bd 2b ae f9 bd
       -0.31290293 -0.23673177 -0.043554604 -0.12191423
0002e0 9c 63 d5 3d 33 fb 3f 3e a9 b6 e8 3e d0 74 5b 3c
       0.104193896 0.18748169 0.4545186 0.0133945495
0002f0 c6 4a 6c 3e 8b de 20 be b6 ba 8d be 9c 25 03 be
       0.23075399 -0.15709893 -0.27681512 -0.12807316
000300 fc 15 bb be e0 25 03 bc 2f 80 ac be 9c d8 18 be
       -0.3654021 -0.008004636 -0.33691546 -0.1492638
000310 bb 2f d8 be 2d 39 10 bf f9 de 95 3e 37 58 ca 3d
       -0.42223915 -0.56337243 0.29271677 0.09880107
000320 2f e7 e6 3f b9 07 65 bd 10 9a 27 3f 5a 3a d5 3d
       1.8039302 -0.055915568 0.65469456 0.1041152
000330 9b ce 4b bc 60 39 1b bc 86 02 2c be af 3b d3 be
       -0.012439395 -0.0094741285 -0.16797838 -0.41256472
000340 cd 28 79 be 9a bf 29 be 67 6c a7 3c 72 b0 e1 3c
       -0.2433197 -0.16576996 0.020437432 0.027549956
000350 f0 c7 cd 3e 04 71 99 3e b5 2c df bf c6 f1 c2 3e
       0.40191603 0.29969037 -1.7435519 0.38075083
000360 98 e5 63 3e 94 4a 33 3e 5c ed da bd 28 99 ab 3d
       0.22255552 0.17508918 -0.10689804 0.083788216
000370 5c ed 52 bd fe f4 ad 3d d8 14 86 bf 87 65 e1 3f
       -0.051495895 0.08493994 -1.0475111 1.7609109
000380 1e c5 9e 3f f0 5a 7b 3e c4 85 a0 3e 86 f9 dc 3e
       1.2403905 0.24546409 0.31352055 0.4315912
000390 a4 e6 b3 be f4 dc d7 3e 1e 39 b2 bb b1 5b 19 3c
       -0.35136902 0.4216076 -0.005438938 0.00936024
0003a0 13 37 db bf ae 35 de 3e 9b 16 5c 3f 5b 5c b2 be
       -1.7126182 0.4340033 0.85971993 -0.34836087
0003b0 3e 5e 67 be a8 77 a4 bd 7f af 36 3d 43 d7 ae 3e
       -0.22594544 -0.08030635 0.04460096 0.34148607
0003c0 98 59 51 3e 86 76 a0 3e c1 d8 60 3e 04 cd 2a 3e
       0.20444334 0.31340426 0.21957685 0.1667977
0003d0 1f 9a ff bd f7 c2 8e be d7 0f 8b be c1 ba 4b 3e
       -0.12480568 -0.2788312 -0.27160522 0.1989546
0003e0 63 23 19 bf 90 3b 7d 3e 87 e3 bc 3e d9 f2 f1 3e
       -0.5981962 0.24729753 0.3689234 0.4725559
0003f0 e4 43 9d 3e 6c 5a a1 be 3f 75 2b bd 32 7a a2 be
       0.3071586 -0.315143 -0.04185986 -0.31733853

actor.0.bias f4 [128]
000000 91 2e c1 be 76 a7 8c 3e 71 92 70 be b4 ca a0 3e
       -0.3773084 0.27471513 -0.23493363 0.3140465
000010 c0 d3 86 be 9e 9d 62 be bd cb d5 be bd cc ed 3e
       -0.26333427 -0.22130439 -0.41757002 0.46445265
000020 bb fd fc bd 33 43 1a bf 74 9e 64 be d5 38 d4 3d
       -0.12353083 -0.6025879 -0.2232607 0.10362402
000030 51 29 e8 3e 57 59 0d 3f fc 1f 1e 3e 79 3b fa be
       0.45344022 0.55214447 0.15441889 -0.488735
000040 da 03 cf 3e e7 74 ba 3e 5a 7e 12 be e2 00 56 be
       0.40432626 0.36417314 -0.14306012 -0.20898774
000050 6e 6c 8c be 5f df 9f bd 0c d3 2d be bc bd e6 3e
       -0.27426475 -0.078062765 -0.16975039 0.4506663
000060 eb 78 66 3e d7 c4 b1 be 63 d3 6c 3f 70 05 d8 3c
       0.22507064 -0.3472049 0.9251005 0.02636978
000070 0c c6 cf 3e 00 a5 92 be 45 4a 63 3d 6a 9e 65 be
       0.40580785 -0.2864151 0.05549075 -0.22423711
000080 2f 38 d6 3e 40 3c 83 bd ea 28 b9 be 8c 96 91 be
       0.4183974 -0.06407976 -0.36164027 -0.2843517
000090 5a f3 36 3e c4 4f d2 3e 3a 91 34 be 57 2c 8b be
       0.17866269 0.4107648 -0.17633525 -0.27182266
0000a0 e1 ab 36 be 6b 0a 85 be 68 81 a0 3e fa d9 97 be
       -0.17839004 -0.2598451 0.3134873 -0.2965849
0000b0 82 0d a8 be bb f4 69 be cb 62 a7 be 09 c1 e0 be
       -0.32822806 -0.22847264 -0.3269256 -0.43897274
0000c0 1a c8 87 be db 81 40 bd 7d 24 71 3e 5e a0 63 3e
       -0.26519853 -0.04699884 0.23549075 0.22229144
0000d0 96 40 b0 be dd 22 32 be 69 66 35 3e 8e 79 a1 bd
       -0.34424275 -0.17396112 0.17714848 -0.07884513
0000e0 ad 9e ac be 42 7d 2d 3f 83 aa 5f be 1d ff 29 be
       -0.3371481 0.67769253 -0.21842389 -0.16601224
0000f0 34 94 c8 bd d0 17 a0 be a5 4c 8d 3e 02 df 99 3e
       -0.097938925 -0.31268167 0.27597538 0.30052954
000100 72 b6 82 be ac 61 da bd 0d 24 ba bd b2 5f 82 3e
       -0.2552982 -0.10663161 -0.090889074 0.25463635
000110 54 54 9e 3e 2a 59 15 be d0 d9 10 be 3f b6 5a bd
       0.30923712 -0.14584795 -0.14145589 -0.05339646
000120 53 77 0e 3f 7d 2e 89 3d d4 7f d3 3e 69 9d ab bd
       0.55650824 0.0669832 0.41308463 -0.08379633
000130 3f 73 2b be b8 2d 09 3f 4a 41 f0 bc 39 5e bd 3e
       -0.16743182 0.53585386 -0.029328007 0.3698595
000140 11 36 f3 be e2 89 95 3e 78 85 b2 3e 9c 1d e7 be
       -0.47502187 0.2920676 0.34867454 -0.45139778
000150 eb e7 2a bf 90 a5 0d 3f de c2 41 be 1d 0c 14 3d
       -0.6676013 0.55330753 -0.18921992 0.036144365
000160 02 f7 a2 3d 19 07 94 3d f0 f3 eb 3a b8 5c d0 be
       0.07957269 0.07227916 0.0018001776 -0.4069574
000170 06 b5 35 bb 6e 30 cc be 82 07 50 be 9e bd c5 be
       -0.0027726307 -0.398807 -0.20315364 -0.3862123
000180 e3 ba 53 3d 0e b1 4a be 7e 3f d9 3e b5 21 3f bf
       0.0516919 -0.19794104 0.42431253 -0.7466081
000190 dc ef 3f 3e 15 37 8f be db 36 06 3e 34 9f 6a 3e
       0.18743843 -0.27971712 0.13106863 0.22912294
0001a0 10 a2 8c 3c 7f 10 7e be 44 96 46 be 93 0b 8f be
       0.017167121 -0.2481098 -0.1939326 -0.27938518
0001b0 f0 db ed bd 8e db 32 3d ae 69 8c be b5 93 10 be
       -0.116142154 0.043666415 -0.27424377 -0.14118846
0001c0 ac c1 4a 3e 12 18 3f be 34 5c 81 3e 70 2d fb 3d
       0.19800442 -0.18661526 0.25265658 0.12264526
0001d0 9b 04 51 bd 4a 20 a0 3e 8c 58 0e bc 8b 37 89 be
       -0.051029783 0.31274635 -0.008688103 -0.26800188
0001e0 a7 e2 e3 be d9 ee 9d be 24 55 58 be bc 57 d1 be
       -0.4450886 -0.3084629 -0.21126229 -0.4088725
0001f0 16 ef 91 3e de 3b 86 3e 12 97 27 3e 7b 3e 0c bf
       0.2850272 0.2621755 0.16366223 -0.5478284

actor.2.weight f4 [128, 128]
000000 85 2e 54 3d 89 fa bd bd 03 89 15 bd a3 92 83 bd
       0.051802177 -0.092763014 -0.036507618 -0.06424453
000010 43 9a 40 bc 3e 61 1e bf 9d 9a 01 3e e1 4d 97 3d
       -0.011755529 -0.6186713 0.12656637 0.07387901
000020 35 b9 10 be bb de 73 3d 65 36 93 bd d7 65 fb be
       -0.14133151 0.059538584 -0.07188109 -0.49101135
000030 3e ec 56 bf 43 df 4d 3e 12 f9 10 be 29 3c 23 3e
       -0.83954227 0.20104699 -0.14157513 0.15940918
000040 a1 dc 81 bd 43 2c 72 bc 55 7e 57 be eb bb 2b be
       -0.0634091 -0.014781061 -0.21044286 -0.16770904
000050 b8 60 41 bf 5b 9c 1b be 9a e4 c8 be b4 4a 1b be
       -0.75538206 -0.15196364 -0.3923691 -0.15165216
000060 02 e5 31 bf 3f a0 c4 3d 0b 47 ab 3d 39 cc 2f bf
       -0.69490063 0.09600877 0.0836316 -0.68670994
000070 23 f0 fa b9 2b 3d dd 3d f7 3a 95 bd 94 12 4c 3f
       -0.00047862632 0.108026825 -0.07286637 0.7971585
000080 ef e5 18 3e 5d b2 0f 3d 85 c8 39 3d 9a 24 03 3f
       0.14931463 0.03508221 0.045357246 0.51227725
000090 bd f0 49 bd 73 c2 c0 bd a5 2e d5 bd e7 7b 58 3e
       -0.04930185 -0.09412088 -0.10409287 0.21141015
0000a0 1b 45 59 bd 81 ac 89 bd 08 4e 1e bd e7 bf a5 3d
       -0.05304442 -0.06722356 -0.038648635 0.08093243
0000b0 b2 6a b9 3e bd eb 2b bd 1e c9 85 3f 8d 55 6b 3d
       0.36214215 -0.041972864 1.0452001 0.057454634
0000c0 53 63 46 3d 97 61 32 3e e3 c8 86 3d ac 7f b9 bd
       0.048434567 0.1742004 0.06581285 -0.090575546
0000d0 31 61 7d be db b3 01 be bc 83 69 be bf 9c 41 3e
       -0.24744107 -0.12666266 -0.22804159 0.1890745
0000e0 f1 5b 1d bc f1 46 72 bd 79 9a 30 3e 43 2b 0b 3e
       -0.00960444 -0.059149686 0.17246427 0.13590722
0000f0 5d ea 2c bd 71 e4 5e bd ab a7 2b be 4f 28 e7 3d
       -0.042215694 -0.054417077 -0.16763179 0.11286985
000100 d9 a2 1b 3c eb b8 82 3c 46 4c 30 bf a9 9e 40 3d
       0.009499275 0.015957316 -0.68866384 0.04702631
000110 69 fa 27 3d 77 3d c5 bd 3d 1b 72 3d 04 5d 30 bf
       0.041010294 -0.09630864 0.059108008 -0.6889193
000120 ee 56 ae 3e 8d 70 1c bc de 39 94 be f4 7a 83 3e
       0.34050697 -0.009548319 -0.289504 0.25679743
000130 e5 37 21 3d 46 cd 92 bf 54 3a 6e bd 24 21 fb 3f
       0.039359946 -1.1468894 -0.058161095 1.9619489
000140 98 5f af be c9 ac 4e bd 78 71 19 3f 8e 8d 28 3c
       -0.3425262 -0.05045775 0.59938765 0.0102876555
000150 f9 c5 dd 3c 22 85 50 be b3 77 fa 3c 55 e5 5d 3e
       0.02707194 -0.20363286 0.030574655 0.21669514
000160 f8 fe 8a 3d 57 52 dd 3e 02 d3 f0 3e 57 9f fb bd
       0.06786913 0.43226883 0.47035986 -0.12286251
000170 f7 9c 50 bd 9e 4e 50 3f 85 f7 a8 bc 9b b1 5b be
       -0.050930943 0.8136996 -0.020625839 -0.2145447
000180 31 6f 60 be e9 40 44 3e c4 b3 8f 3e f1 cc 1a 3e
       -0.21917416 0.19165386 0.28066838 0.15117241
000190 ad 7a 80 3d 42 07 80 be 04 35 b2 3e 3f 12 76 be
       0.062733985 -0.25005537 0.34806073 -0.24030398
0001a0 7d 90 ce bb 0b b0 98 3e b2 41 9d 3e 9b 73 2c bd
       -0.0063038454 0.2982181 0.30714184 -0.042102437
0001b0 6d b6 90 bb ed 72 8a 3d e3 fa 29 3d 10 05 32 3d
       -0.004416278 0.067602016 0.04149903 0.04346186
0001c0 e5 08 62 3b aa c8 86 be 49 4f 02 be 20 b8 7b 3f
       0.0034490165 -0.2632497 -0.12725557 0.9832783
0001d0 2b a6 48 be 29 44 1c 3e 0d 28 94 3d d5 82 e4 bd
       -0.19594638 0.15260376 0.072342016 -0.11157767
0001e0 c5 06 85 3d 18 35 58 bf af d8 2a 3c 9f 10 80 3d
       0.06495432 -0.84456015 0.010427638 0.0625317
0001f0 47 f1 7a bd 31 65 30 3d 25 8b 6c be 97 73 37 be
       -0.061265256 0.043065254 -0.23099954 -0.17915188
000200 f6 ec 3b 3e 32 e8 fc 3e fc e1 16 be 4f f0 4f 3e
       0.18352112 0.493959 -0.14734644 0.20306514
000210 2b ab 4f bc 4e 29 9e 3e 58 27 09 3e de 78 65 3d
       -0.012675087 0.30890888 0.13393915 0.05602347
000220 ce c2 1e bf d3 61 73 be cc 78 04 be 31 9a ef 39
       -0.62016 -0.23767786 -0.12936705 0.00045700514
000230 f2 31 09 bf 77 d4 b4 be 08 c3 6b 3e 13 8a 0a bd
       -0.53591835 -0.35318348 0.23023617 -0.033823084
000240 53 31 98 be 01 fa a8 3d 6a 90 86 3d 06 55 ea bd
       -0.2972513 0.082508095 0.065705135 -0.11441998
000250 46 2c 7a 3e 7c c3 86 be 2b 36 37 bc 8a ef 6b 3f
       0.24430951 -0.26321018 -0.011182348 0.9216238
000260 62 2e c7 3e 5a 27 ca bc 71 e5 b2 be 99 84 53 3c
       0.38902575 -0.024676967 -0.34940675 0.012910032
000270 fc 0c c1 3f 79 92 9f bd b2 3f 04 be 01 e0 85 3e
       1.5082088 -0.07791609 -0.12914923 0.26147464
000280 ca e7 76 3e 94 02 b3 bc 9b 9c c7 bd aa e4 30 3e
       0.24111858 -0.021851815 -0.09746667 0.17274728
000290 6e bb 26 3d d0 00 2c 3d a9 42 7a bc 5c 2f 0c 3e
       0.04070609 0.041992962 -0.015274682 0.13689941
0002a0 ef 53 30 be 35 51 c7 bd fc aa b2 bd ad 84 c6 3d
       -0.17219518 -0.09732286 -0.08724019 0.09693275
0002b0 77 b3 e0 be a3 ae 21 bb 53 0e 22 be 53 02 88 bd
       -0.4388692 -0.0024670742 -0.15825777 -0.06641068
0002c0 34 1e 4f bd fe d0 21 be c5 ac b8 3d c3 a5 bc 3e
       -0.050565913 -0.1580238 0.09017328 0.36845216
0002d0 48 af 5c 3e 58 c1 fa be 7b 1a 07 be 4a 0c 99 3e
       0.2155124 -0.48975635 -0.13193695 0.29892188
0002e0 bb 62 b5 3d 48 cb b6 be c4 6b b1 3b 9d aa b2 bd
       0.08856722 -0.35701966 0.005414458 -0.08723948
0002f0 bd fd db bd de c9 18 be 48 ea 5b 3e 4b 3f 23 3f
       -0.10741756 -0.14920756 0.2147609 0.6376845
000300 e1 13 c7 3d e4 08 64 bd 56 0d ce bc c0 2a 50 be
       0.097205885 -0.05567254 -0.025152843 -0.20328808
000310 eb a7 f8 bd d4 3b 94 bd 3a 57 15 3e 1d 2b 54 3d
       -0.12141403 -0.07237974 0.14584056 0.05179893
000320 25 75 94 3e 3d 51 97 3e 10 0a bc 3e d6 4b 8f be
       0.28995624 0.29554167 0.36726427 -0.27987546
000330 67 a4 b4 bd 6a 3e c1 3e 42 3f 30 3c aa 47 a6 bf
       -0.0882042 0.3774293 0.010757269 -1.299062
000340 e5 ef d2 be 49 8d 7c bd c7 71 99 be fb 1f b5 bd
       -0.4119865 -0.061658178 -0.29969618 -0.088439904
000350 e5 4a 4b be f3 7f 97 3e f3 0c 8e 3e be 98 a1 be
       -0.19852789 0.29589805 0.27744254 -0.31561846
000360 bb 50 a8 3d 7e 5b ac 3d ff d3 d6 bd 55 51 bd 3e
       0.08218523 0.08415888 -0.10489654 0.36976114
000370 89 1c 8c 3d 81 4e a9 ba 19 e0 af 39 24 f8 12 3e
       0.0684138 -0.0012917073 0.00033545567 0.1435247
000380 7c 06 cb 3e 10 ae d3 3e fa 42 93 3e c4 c6 ad 3d
       0.39653385 0.41343737 0.28762037 0.08485177
000390 df fe fb 3b 4e 52 84 3e ed 68 ec 3d 5a b9 f1 be
       0.007690295 0.25844043 0.115434505 -0.47211725
0003a0 e8 69 3f 3d 31 42 88 3d d3 45 25 be cf 02 1b be
       0.04673186 0.0665325 -0.16139917 -0.1513779
0003b0 c9 60 9b bd 35 fe d8 3d 08 3f 4b 3d da ff 85 be
       -0.0758682 0.10595361 0.04962066 -0.26171762
0003c0 68 01 01 3e c6 36 82 3e e0 8a 4d be 0c dd 7e 3e
       0.12598193 0.25432414 -0.20072508 0.2488901
0003d0 b2 06 8a be 8a 98 5f bd 26 14 27 bd fb 51 af 3d
       -0.26958233 -0.054588832 -0.0407907 0.085605584
0003e0 e4 20 ca be 8c 17 ac be 30 4a 25 bd f1 22 ac 3d
       -0.3947822 -0.33611715 -0.040353954 0.08405102
0003f0 32 e3 80 3d c9 fc d8 3d a5 cf 48 3c c2 09 16 be
       0.06293334 0.1059509 0.012256538 -0.1465216

actor.2.bias f4 [128]
000000 b0 a8 c8 3b c9 c5 9e 3d 75 d4 fc 3d 5d 23 cb 3c
       0.0061236247 0.07752568 0.123452105 0.024797136
000010 8c f9 33 3c e0 87 3c 3c 78 b4 51 bc ac cc 40 bc
       0.01098479 0.0115070045 -0.012799375 -0.011767548
000020 fd cb d6 bd 96 da eb bd 4b ea 17 3d 7c dd 07 3d
       -0.104881264 -0.11516301 0.037088674 0.03317021
000030 fa c1 12 bd fe 3d 30 bd fa 74 cc bd b6 3a 3a bd
       -0.03582952 -0.04302787 -0.09983249 -0.045466147
000040 ea e4 5b be 66 f1 a8 bd 04 1d 7d 3e 69 c0 07 3e
       -0.21474043 -0.08249168 0.247181 0.13256992
000050 68 a7 24 3e 09 88 46 bd 8c 96 a6 bd 5f e6 c9 bc
       0.16079485 -0.048469577 -0.08134183 -0.024645982
000060 b4 6c 4e bc de be 68 3d 06 4f b4 3d 40 21 f2 3d
       -0.012599159 0.05682265 0.08804135 0.11822748
000070 f4 ec 50 be c8 a1 52 bd 42 d8 38 bd cf f1 1d 3d
       -0.2040289 -0.051423818 -0.045128115 0.038560685
000080 32 53 4f be cc 23 0e bc fc f0 62 3c f6 cb 82 bd
       -0.2024658 -0.008675527 0.0138514 -0.06386559
000090 fc 31 85 bd 81 39 3d 3c 06 ce 09 bd 9b c9 87 3c
       -0.065036744 0.0115493545 -0.033643745 0.016575625
0000a0 2f e0 8b 3c 64 08 37 3e 87 3c 26 be a7 2c ad 3c
       0.017074673 0.17874295 -0.16234027 0.021139456
0000b0 77 fa bb bd 24 c9 5b bd a1 d6 19 3d b4 d3 57 3d
       -0.09178632 -0.05365862 0.0375582 0.05269213
0000c0 49 b8 f8 3d bb b3 2b 3e b3 61 cb 3d c7 33 82 bd
       0.121445246 0.1676778 0.09930744 -0.06357532
0000d0 06 b2 20 bd 6e a9 1f 3d a6 a8 c9 bd b5 7e 96 bd
       -0.039232276 0.03897994 -0.0984662 -0.07348386
0000e0 e1 f9 80 3d 69 55 cc bc 93 7e c9 bd bb 66 a2 3c
       0.062976606 -0.02494307 -0.09838595 0.019824376
0000f0 47 e3 d6 3d 1d ad e1 bd c2 ed 58 3c 46 06 59 3d
       0.104925685 -0.11019347 0.01324028 0.0529845
000100 e9 c7 0c 3e 0f 21 ff bd 5c 24 0d 3e 72 ab 1a 3b
       0.13748135 -0.12457477 0.13783401 0.0023600725
000110 c0 fc 91 3c bd 22 35 3e 5c 4c e3 bc 52 84 41 3e
       0.017820716 0.17689033 -0.027746372 0.18898132
000120 da 88 0c 3e fb ba 78 3d 7d e2 89 bb 36 58 a0 bc
       0.1372408 0.060725193 -0.0042079077 -0.019573312
000130 9a 0c 70 bd c5 7f 6e 3d 17 60 8a bc 7d 6f b3 bd
       -0.058605768 0.05822732 -0.016891522 -0.08761499
000140 1d dc 20 be 76 8b bb 3d b2 da 93 3d 7b 20 28 be
       -0.15708967 0.091574594 0.07219447 -0.1641864
000150 3f 0a e8 bd 25 da 7b 3d 53 1b 75 3d 86 5d d2 bd
       -0.11330079 0.061487336 0.05984051 -0.102717444
000160 80 b2 96 bd 5d a5 41 bd b3 a9 2e 3e 67 2d 51 3d
       -0.07358265 -0.047276843 0.17056923 0.05106869
000170 f0 9d 18 3e 06 3a 93 bd ab 4f f4 bd d8 58 c0 3d
       0.14903998 -0.071888015 -0.11929258 0.093919456
000180 0c ed 9a bd f4 34 a5 bd b8 0b 5c bd 06 6d 1b 3e
       -0.07564744 -0.08066741 -0.053722113 0.15178308
000190 87 84 94 3d af bf 14 bc a3 ac 45 3e a5 8e 1b bd
       0.0725184 -0.009078904 0.19304137 -0.037977833
0001a0 ec 7c 51 3e 0a 3d ab 3d 85 6b ea bd 2c 69 41 bd
       0.2045781 0.08361252 -0.11446289 -0.04721944
0001b0 24 9c 05 3e 9d d5 11 3e 94 4e ab bd ed d0 ac bd
       0.13047844 0.14241643 -0.08364597 -0.08438287
0001c0 27 c0 4f 3d 97 6d c5 3b c0 d3 16 3d c4 f9 c5 3b
       0.05072036 0.006025027 0.036823034 0.0060417373
0001d0 af 0f 9b bc fa b1 f5 bd 56 86 9f bc 2a e9 42 3d
       -0.018928377 -0.11996837 -0.019473236 0.047585644
0001e0 26 ce 32 be 11 98 ca bd ec 87 2b bb 69 c5 06 bd
       -0.17461452 -0.098922856 -0.0026173545 -0.03290311
0001f0 d9 0b ba bd 54 5a 2d bd da 9b 46 3e 1d 04 ce bd
       -0.09084291 -0.04232247 0.1939539 -0.10059378

actor.4.weight f4 [2, 128]
000000 91 99 7c bd 36 bd 12 be b4 09 41 be 01 c8 29 bf
       -0.06166989 -0.1432999 -0.18851358 -0.66320807
000010 e4 eb b5 be b7 a4 d9 3e 52 b7 0e bd 3c 19 c6 be
       -0.35531533 0.4250848 -0.034842797 -0.38691127
000020 1e 51 ff be 44 49 e0 3c 57 13 27 3e 0c a8 90 be
       -0.49866575 0.027378686 0.16315971 -0.2825321
000030 d1 2d be be 60 bb 32 be 1c 51 51 bd 48 90 d5 bd
       -0.3714433 -0.1745429 -0.051102743 -0.1042791
000040 62 d0 02 3f eb 5a d5 be 15 8e 74 be 3f cf 91 3e
       0.51099217 -0.41670927 -0.23882325 0.2847843
000050 a4 1e d1 bd 45 c7 91 3e 8d fa fd 3d 8a 57 57 be
       -0.10210922 0.28472343 0.124013044 -0.21029487
000060 31 f0 30 3e dc 9e 89 be 3e ad 70 be da 6e 6c 3e
       0.17279126 -0.26879013 -0.23503587 0.23089162
000070 fa a5 16 bd fc 1a 84 3d 66 49 63 3e d4 b3 29 3e
       -0.03677938 0.06450459 0.22195968 0.16572505
000080 6d 3c 55 3c 0e 28 69 3e 19 4a 4d 3e ee a0 33 3e
       0.013014895 0.22769186 0.20047797 0.17541859
000090 1f e8 a8 be 2b 37 23 be 94 39 c4 bd cc bb 03 bf
       -0.32989594 -0.15939014 -0.09581295 -0.5145843
0000a0 a1 90 96 3e bb fd 4c be 3c 97 4f 3e 87 95 d8 bd
       0.29407218 -0.20018665 0.20272535 -0.10575395
0000b0 eb 09 42 3e 47 49 32 bd 67 df 9d bc fd 89 c6 be
       0.18949096 -0.043526914 -0.019271566 -0.38777152
0000c0 2a 23 8d be 7c 05 86 3e 95 b5 46 3e 70 d4 98 3e
       -0.2756589 0.2617606 0.19405206 0.29849577
0000d0 13 d3 99 bd 30 02 b4 be 04 b9 13 3f 76 d3 85 3e
       -0.07510962 -0.3515792 0.57704186 0.26137894
0000e0 d8 ed 28 be 33 05 94 3e 85 99 0d 3e 5b 05 bb be
       -0.1649698 0.28910217 0.13828094 -0.36527523
0000f0 4c 3a ac 3e b8 97 9a be 8e 77 7b 3e 62 b6 db 3e
       0.33638227 -0.30193877 0.24557325 0.42912585
000100 69 00 4e be ca 16 2e 3f 60 c3 96 3e f9 a2 9f be
       -0.20117344 0.68003523 0.29445934 -0.31179026
000110 54 4f 65 bc b0 fd d4 be 06 44 b6 be 37 3c 50 3e
       -0.013995964 -0.41599798 -0.35598773 0.2033547
000120 f0 ca 63 be e9 6b ac 3e 48 56 f9 be 35 4b 94 be
       -0.22245383 0.3367608 -0.4869864 -0.28963628
000130 6f 56 01 3f 69 e4 ae 3d 28 4d 99 3d 2d 36 af 3e
       0.5052251 0.085396595 0.074854195 0.3422102
000140 4e bf 11 3b ea 78 4b bc 8e a3 b7 3e f7 3e 71 3e
       0.002223927 -0.012418965 0.3586697 0.23559175
000150 ef 31 07 3f 0f c2 9e be 8b bd 49 3e fb 51 44 be
       0.5281057 -0.3100743 0.19701211 -0.19171898
000160 1b dd 22 3f 76 4d 02 be e9 31 aa be 70 5b 85 be
       0.6361863 -0.12724862 -0.33241203 -0.26046324
000170 71 92 6b be 46 2d bc be a9 eb 9a be c2 81 19 3e
       -0.23005082 -0.3675329 -0.3025792 0.14990905
000180 6e 84 82 3e 78 3e 00 bf 4d f9 99 3d 9c 6c 2f 3f
       0.2549166 -0.5009532 0.075182535 0.685251
000190 0b ca 15 3d 82 64 5a 3d 20 65 f2 be a4 c3 3e 3e
       0.036569636 0.053318508 -0.47342777 0.18629318
0001a0 fd 75 a5 be 66 d5 60 be b7 c8 24 bc b4 a3 44 be
       -0.3231658 -0.21956405 -0.01005762 -0.19203073
0001b0 2f 2e 22 3e fd 38 00 bf 2b 64 8d 3e 8d db 81 be
       0.1583793 -0.5008696 0.27615485 -0.25362816
0001c0 9d 9d c3 bc ee 0f a7 3d fa b1 43 be cc d3 a5 be
       -0.023878867 0.08157335 -0.19110861 -0.3238815
0001d0 9b 56 8a 3e f2 f6 13 3e 84 69 4c 3d 3a 3f 75 3e
       0.270192 0.14449671 0.049905315 0.239499
0001e0 26 2d f3 be 28 c0 c0 3e 42 45 36 be e8 d4 c7 be
       -0.47495383 0.37646604 -0.17799857 -0.39029622
0001f0 17 fa 56 3e 32 17 28 3f 85 bb 2e bd 5e d7 a2 be
       0.20993839 0.65660393 -0.0426593 -0.31804937
000200 7a e8 90 be 9e 6f c5 3e c2 10 91 be f5 55 e7 3c
       -0.28302366 0.3856172 -0.28333098 0.02823923
000210 57 95 5f 3d 95 d8 e6 39 cf 93 87 3e 5f 6d df bd
       0.05458578 0.00044030385 0.26479957 -0.10909533
000220 f7 2a 1e 3d ef d5 c1 be e2 cc 79 be f6 08 8f be
       0.038615193 -0.3785853 -0.24394563 -0.27936524
000230 28 f0 d1 3d af 94 00 bf dc 61 d7 be 14 43 eb 3e
       0.10250884 -0.50226873 -0.42066848 0.45949614
000240 34 f4 77 3d c7 aa 82 3d 00 d4 98 3e 21 a5 84 be
       0.060535625 0.063802294 0.29849243 -0.25907233
000250 0a 45 ba 3d df 23 0b be 54 12 87 be b1 45 21 3e
       0.090951994 -0.13587902 -0.2638117 0.15749241
000260 d9 ea 8b be f3 a8 62 3c 0e 1f 6d 3e 55 ce ad 3e
       -0.27327612 0.013834226 0.23156378 0.3394648
000270 c4 72 67 be db df b3 be 0f 7c 46 bd 6f 58 db 3d
       -0.22602373 -0.35131726 -0.048458155 0.10710227
000280 71 ac ab be c7 8f 99 3e c7 21 c2 be 1b 22 98 be
       -0.3353 0.29992506 -0.37916395 -0.2971352
000290 b5 9f 52 be 64 0b a5 be 6e bf fb be f8 ff 88 3e
       -0.20568736 -0.32235253 -0.49169487 0.2675779
0002a0 96 b1 d0 be 92 0e 8d 3e 8b ff a1 3e bc 02 b6 be
       -0.40760487 0.2755018 0.31640276 -0.3554896
0002b0 f4 ab 12 be ec b7 57 be eb 71 c0 3e f0 d6 37 3c
       -0.14323407 -0.21066254 0.37586913 0.011220679
0002c0 ec ca 5c 3e 58 c0 37 3e 68 46 8a be e1 6a bd 3e
       0.21561784 0.17944467 -0.2700684 0.36995605
0002d0 99 4e c0 3e 7a 10 3d 3e ab 6e 0d 3e 56 42 d7 be
       0.37559965 0.18463317 0.13811748 -0.42042798
0002e0 b2 10 d6 be 5e 65 97 be 18 26 a1 be 12 28 3a be
       -0.41809613 -0.29569525 -0.31474376 -0.18179348
0002f0 cb 97 d7 3e 78 b8 70 be 1b 4d 44 3e 79 da b2 bd
       0.42107996 -0.23507869 0.19170038 -0.087330766
000300 59 9a 40 be 1c 01 27 be 20 5d fc 3d ba d2 3e 39
       -0.18808879 -0.16309017 0.1232245 0.00018198314
000310 8c e0 b3 3e f4 39 4b 3e 59 58 f6 3e 2d 49 45 3e
       0.35132253 0.19846326 0.4811428 0.19266196
000320 b5 9c 10 be 51 a2 04 bf 8d 72 e7 3d ef 9d e1 3d
       -0.14122279 -0.51810175 0.11301146 0.110164516
000330 99 8c 14 be a9 c5 db be dc f8 d2 be 63 d0 9f bb
       -0.14506759 -0.4292424 -0.4120549 -0.0048771366
000340 03 16 9f be da fa 16 bf cc 92 fc be ad 6b ac be
       -0.3107148 -0.5897652 -0.49330747 -0.336759
000350 d9 fd 71 bd 17 dd 00 3c 3b 3f 4b 3d 39 24 58 be
       -0.05907998 0.007865212 0.04962085 -0.21107568
000360 a3 eb 98 be 99 85 84 be 52 61 0e 3f 36 73 4b be
       -0.29867277 -0.25883177 0.5561725 -0.19868168
000370 54 60 b5 be 75 a1 08 3e ba 50 bd 3b 46 f3 bc be
       -0.35425055 0.13342841 0.0057774456 -0.36904353
000380 e9 8d 68 bd 69 76 4f bc 39 52 ca be 78 34 00 3e
       -0.05677596 -0.0126625085 -0.39515856 0.12520015
000390 ec db 73 be 0e 1a 3a be bb ab 03 3f 2a 1d b1 3e
       -0.23814362 -0.18174002 0.51433915 0.34592563
0003a0 55 11 d6 3d 2e 28 13 3e 36 cc 69 be e4 76 be 3e
       0.104525246 0.14370796 -0.22831807 0.3720008
0003b0 44 48 dc be df 03 62 3c ac 5d 70 3e b5 94 d8 bd
       -0.43023884 0.013794868 0.23473233 -0.105752386
0003c0 03 a8 b5 be e9 6c d5 be ca bb c7 3e fb 6c 73 3e
       -0.35479745 -0.41684654 0.3901046 0.23772041
0003d0 b2 7d dd bd 77 b8 ed 3e 65 b6 ce 3e 9b 1a c7 be
       -0.1081499 0.46429798 0.4037353 -0.38887486
0003e0 63 df 51 3e aa cf fb ba c9 90 80 bd 89 29 06 be
       0.20495372 -0.0019211669 -0.062776156 -0.13101782
0003f0 8e aa 43 3e f7 bd af 3e 47 fa 5b 3e ae ec 16 3d
       0.1910803 0.3432462 0.21482192 0.03684681

actor.4.bias f4 [2]
000000 18 57 69 bd 90 80 48 bd
       -0.056967825 -0.04895073

critic.0.weight f4 [128, 5]
000000 13 8b 83 be 95 e8 df be 8e 40 35 bd 0a b5 b2 3e
       -0.25692043 -0.43732134 -0.044251017 0.34903747
000010 ef cc e6 be 06 92 4b bd 15 89 12 be c2 9a c5 3c
       -0.45078227 -0.049699806 -0.14310105 0.024121646
000020 8c c2 c4 3e 16 ec 20 3f ef ec f9 3d c5 0c df bc
       0.38429677 0.6286024 0.122033946 -0.027227769
000030 13 f8 4f 3e a7 76 b6 3d 57 21 89 be 38 6b f4 3d
       0.20309477 0.0890935 -0.2678325 0.11934513
000040 c8 39 a4 3d dc df 22 3e 42 b7 94 3e 08 9f 97 3e
       0.080188334 0.15905708 0.29046065 0.2961352
000050 2a 13 2b bd 66 8f d1 be 0c 9b 85 3d cf 24 f8 bc
       -0.041766323 -0.40929717 0.065237135 -0.03029099
000060 a3 74 de be 0b 95 0e bd b4 6b 9f bd 91 37 26 3d
       -0.43448362 -0.034810107 -0.077842146 0.040580336
000070 56 db de be 19 2c 2c bf 80 10 99 3d 2c 13 e3 3e
       -0.43526715 -0.6725479 0.0747385 0.44350564
000080 7c 4c 45 3e fe 46 8c be de fb 99 3e 98 f1 f9 bc
       0.19267458 -0.27397913 0.30074972 -0.030510709
000090 11 66 02 3f c7 4c a0 bc 6b 3a 86 3e 71 5f 4b 3e
       0.5093699 -0.01956786 0.26216444 0.19860627
0000a0 40 d4 88 be 04 c1 1a be 46 99 29 be da 12 81 be
       -0.26724434 -0.15112692 -0.16562375 -0.25209695
0000b0 19 a5 c3 be 90 3a f7 3d 06 c4 bf 3e f2 fc 97 3e
       -0.38211897 0.12071717 0.37454242 0.2968517
0000c0 dc 29 96 bd ac c6 05 3e 85 65 d2 3e 25 9d 87 3d
       -0.07332203 0.13064069 0.41093078 0.0662177
0000d0 65 07 ab 3e 09 d8 3f 3e 97 3e 4d be 3a a0 cf be
       0.3340408 0.18734755 -0.20043407 -0.4055193
0000e0 89 bd 15 3e 8d 73 2a be 10 c6 36 3d 56 c1 1f be
       0.14623083 -0.16645642 0.04462248 -0.15601096
0000f0 1e 41 39 3c 81 78 36 be b6 72 8c 3b fb d8 14 3e
       0.011307029 -0.17819406 0.0042861355 0.14535896
000100 d5 80 c8 3e 31 fa 3c 3e e8 3d 1e 3e fb fb dd bd
       0.3916079 0.18454815 0.15453303 -0.10839077
000110 e4 8e 5d bd c7 7a 82 3d 6a af 88 3d 59 77 6a 3e
       -0.05409135 0.06371074 0.066740826 0.2289709
000120 1a 68 3d bd 41 0b f1 be 52 73 ad be b5 25 f1 3c
       -0.046241857 -0.470789 -0.33877045 0.029436925
000130 64 73 0d 3f 82 6f ea bd 14 c4 4f bf 77 07 ce be
       0.552542 -0.1144705 -0.81158566 -0.4024007
000140 f5 3a 9d be ba ac 9c bd 2b dc d9 be 60 54 97 3e
       -0.30709043 -0.076501325 -0.42550787 0.2955656
000150 37 7a b8 be 6e e7 ad be 41 15 63 be f9 24 6b 3e
       -0.36030743 -0.3396563 -0.22176076 0.22963323
000160 be 6d ba 3d a0 81 98 be 79 eb 00 be 46 f0 17 be
       0.09102963 -0.29786396 -0.12589826 -0.14837751
000170 9a e4 f4 3d fc 19 21 be 30 46 80 3d 09 ff 73 3c
       0.11957665 -0.15732569 0.06263387 0.014892348
000180 93 db 8b bd f7 15 ae bb 51 f3 d8 3c b7 cc a0 be
       -0.0682899 -0.005312677 0.02648321 -0.31406185
000190 0c 13 48 bd 9b 9a a3 3d fe 67 02 3e 08 30 da bd
       -0.04884629 0.07988473 0.12734982 -0.106536925
0001a0 28 68 c6 be 78 b6 b1 bd 0f d1 16 3f 56 d7 cf 3d
       -0.3875134 -0.08677381 0.5891275 0.10148494
0001b0 c0 30 b4 3e a0 42 86 3d 7e 33 a4 3e 1b 0d b1 bd
       0.35193443 0.065556765 0.32070535 -0.08645078
0001c0 a9 78 69 be db 33 5d 3f 47 03 3c 3e 1e 44 9e 3c
       -0.22799934 0.8640725 0.18360625 0.01931959
0001d0 27 e8 17 be 09 ab 91 3d 92 eb 02 3f cc c2 34 3f
       -0.14834653 0.071127005 0.511407 0.70609736
0001e0 68 bc c8 be 47 b0 86 3d b3 97 06 3e 30 5b 9f bd
       -0.39206243 0.06576591 0.13143806 -0.077810645
0001f0 09 f1 b0 be 2e 39 18 3d 94 b2 99 3d 80 d9 de 3e
       -0.34558895 0.037163906 0.07504764 0.43525314
000200 30 a1 62 be 70 86 73 3e 6e 86 40 be fc c1 d5 be
       -0.221318 0.23781753 -0.18801281 -0.4174956
000210 50 dc 4b 3d 00 43 67 bb 44 16 d3 bd 84 12 13 bd
       0.049770653 -0.0035287738 -0.10306981 -0.03590633
000220 d7 88 ae 3e 49 bb 93 3e 0d cb 6a 3e 9a 03 11 3e
       0.34088776 0.28853825 0.2292902 0.1416153
000230 3f 1f 33 3e aa 41 e2 3e 44 f0 a4 bd cd d0 9c 3e
       0.17492388 0.44190723 -0.080536395 0.30628052
000240 0a 41 b6 bd 6c 6e f3 3c e5 b6 08 bf 40 1c dc 3c
       -0.08899124 0.02971574 -0.53404075 0.02686894
000250 54 06 d5 ba 46 ea 26 bf 22 7d 53 bd 90 26 2f bf
       -0.0016252496 -0.6520122 -0.051633008 -0.68418217
000260 28 30 53 3d 46 6b 19 bf a7 03 1b 3e c8 e5 cd be
       0.051559597 -0.5992931 0.15138112 -0.40214372
000270 3e a8 96 be a4 26 ca be 08 cd 0e be 37 b8 ba be
       -0.29425234 -0.39482605 -0.139454 -0.3646867
000280 cd 0f d1 be 32 4a 92 be 91 60 91 3e ef 0b 24 bf
       -0.40832368 -0.28572232 0.28393987 -0.6408071
000290 38 0b 76 3d e4 8e 08 be 46 a5 39 be a8 17 ff 3c
       0.060069293 -0.13335758 -0.18129453 0.03113921
0002a0 b7 79 d6 3d 0b cb d0 be 08 28 3a 3d e0 0f 9d 3d
       0.10472434 -0.4077991 0.045448333 0.076690435
0002b0 ac 4e 72 3e 74 e3 8c 3e 84 e0 1d 3e 14 1f 2f 3e
       0.23662823 0.27517283 0.15417677 0.17101699
0002c0 14 ac c0 3e 78 90 2f 3e 20 59 47 3c 2c eb 1e 3e
       0.37631285 0.17144954 0.012167245 0.15519398
0002d0 13 95 33 3e c0 7a de bd ee d4 8a bd 12 54 4a 3e
       0.17537336 -0.108632565 -0.06778894 0.19758633
0002e0 bc 3f 6b 3d d8 b3 c2 3e 2c f9 57 be 16 94 75 3e
       0.05743383 0.38027835 -0.21091145 0.23982272
0002f0 b8 f8 30 be a8 52 d4 3e 92 61 13 be 3c c7 05 bf
       -0.17282379 0.41469312 -0.14392689 -0.5225713
000300 85 be fe 3d ea 86 bf be 51 86 25 bf c4 d2 ba 3e
       0.124386825 -0.3740762 -0.64658076 0.36488926
000310 10 a0 b5 3d dc 3b 05 3e f0 7d 86 3c 52 5f c6 3e
       0.0886842 0.13011116 0.016417474 0.387446
000320 c0 0e cb 3d a4 11 96 3e 20 bd e4 3c 06 43 c6 3e
       0.09914923 0.29310334 0.027922213 0.3872301
000330 fc 0b 4b 3e 3c 98 05 3e 1f 74 af 3e 8f 56 15 be
       0.1982879 0.13046354 0.3426828 -0.145838
000340 07 05 83 3d eb 2b 1e be 95 5f 14 bc 11 78 e0 3e
       0.06397443 -0.15446441 -0.009055992 0.43841603
000350 f2 a7 f0 bc c7 9a 6d 3f 25 3b 6e 3f 58 87 28 bc
       -0.029376958 0.92814296 0.93059 -0.010286175
000360 65 71 13 3f 0e 80 7c bd b2 d4 37 3f 7c 81 2c 3f
       0.575949 -0.06164556 0.7180892 0.6738508
000370 49 7f 91 3e 6a 6a 37 3e e3 d8 15 be 15 b6 05 be
       0.28417423 0.17911687 -0.14633517 -0.1305774
000380 87 ac db 3d 1c 47 26 3e 0e 3b 97 3e 90 81 d5 3d
       0.10726266 0.16238064 0.29537243 0.10425103
000390 04 f6 9c 3e d0 1f a4 3d 0f c9 94 be 1a 42 5b 3e
       0.30656445 0.0801388 -0.29059646 0.21411934
0003a0 69 3a 40 3e 8d 10 58 3f fe aa a7 3f 40 1d e8 bb
       0.18772282 0.84400254 1.3099058 -0.007083565
0003b0 5c 4e c0 bd a0 c7 74 bd 50 6e 6e 3d 40 4a 3e be
       -0.09389946 -0.05976069 0.05821067 -0.18583012
0003c0 ec 4b d3 be c8 1c c5 be 26 9c 6e be 28 c3 a6 bd
       -0.4126886 -0.3849852 -0.23301753 -0.08142692
0003d0 34 8a b1 bd 42 93 4d be 04 f7 27 be ce a3 93 be
       -0.08668938 -0.20075706 -0.16402823 -0.2883591
0003e0 f2 3a 88 be e3 14 4b be c0 59 88 3d ce 60 c9 3e
       -0.26607472 -0.19832186 0.066577435 0.3933167
0003f0 40 c9 16 bc cc 06 b0 3e 28 ec f0 3d 36 0f b8 bd
       -0.009203255 0.34380186 0.11763793 -0.08987276

critic.0.bias f4 [128]
000000 a2 62 ac be 17 f3 df 3e 5b 12 9b be 17 ac 9b be
       -0.33669 0.4374015 -0.30287442 -0.30404732
000010 44 9b bc 3e 20 a2 ca 3d b4 46 04 be 69 9e ff bb
       0.36837208 0.09894204 -0.12917596 -0.0078008664
000020 c0 72 e3 bb e0 ce 0c 3e bd de 30 3e cf 0f 8b 3e
       -0.0069411695 0.13750792 0.17272468 0.27160498
000030 53 9e 27 3e a8 6c bf bc 44 c0 fd 3e 0d c9 17 3f
       0.1636899 -0.023367241 0.4956075 0.59291154
000040 3e f2 ce 3d 5b e1 7d 3e 55 5b 87 3e 18 01 b7 3e
       0.10104798 0.24792998 0.26436868 0.35743022
000050 82 a6 c1 3d 71 c1 d0 bd 36 29 a4 3e 34 a6 ba bd
       0.09455587 -0.10193146 0.3206269 -0.09113732
000060 5a a2 d4 be 15 44 df 3c bf 43 e1 be 81 57 4a 3e
       -0.41530114 0.027254144 -0.43997 0.19759943
000070 f3 17 c0 3c 9a d7 68 be 17 29 a6 3d 32 bb cd 3e
       0.02344892 -0.22738495 0.08113306 0.4018188
000080 75 e2 cd be 42 b2 e3 be 10 90 c4 3e 64 50 96 3e
       -0.40211836 -0.44471937 0.3839116 0.29358208
000090 21 fc d1 bd 56 69 97 3e 6b 90 ec be 5a bf 66 be
       -0.10253168 0.29572552 -0.46203932 -0.22533932
0000a0 06 e7 dc 3e 08 54 9e be 7d ff 82 3e 11 2f 5f bd
       0.43145007 -0.30923486 0.25585547 -0.054488245
0000b0 c1 3b 07 be 91 49 b7 be 0d 9d 67 bc ee 2f cc 3e
       -0.13206388 -0.35798314 -0.014136565 0.39880317
0000c0 30 16 ef bd 30 be 13 3d fa 8f 3f be 2b 68 ca 3e
       -0.11674154 0.03607005 -0.18707266 0.395326
0000d0 e1 54 07 3e 74 59 d4 bd e5 2c 66 3e 2d bc 63 be
       0.13215972 -0.10368624 0.22478063 -0.22239752
0000e0 54 c0 8d 3e 30 ef 5e 3e 91 41 67 be a2 aa c6 bd
       0.27685797 0.2177093 -0.22583605 -0.097005144
0000f0 6a 34 e5 3e 38 46 31 bd 4c e7 c5 bd 3b 94 ac be
       0.4476655 -0.043279856 -0.09663257 -0.3370684
000100 1e 25 b0 be 81 ce d4 be 7d b9 b8 3e 36 f8 de 3e
       -0.34403318 -0.415638 0.36079016 0.43548745
000110 8c 3b b8 3e 98 11 c5 3e fc 32 96 3d a1 61 ae 3e
       0.3598293 0.38489985 0.07333943 0.3405886
000120 08 dd 63 3e 4f 9b 11 be 0b d7 3b be 32 54 94 be
       0.22252285 -0.14219402 -0.18343751 -0.28970486
000130 a3 4a a9 bd 7d 1f 10 be 55 78 1d bd f6 85 b0 3e
       -0.08266189 -0.14074512 -0.038444836 0.34477204
000140 c5 8d cf 3e f0 c0 a9 bd 98 c9 3b 3e b2 5f 5e 3e
       0.4053785 -0.08288753 0.1833862 0.21716192
000150 90 dd 5a 3c f2 fc db bc 2b 17 ce 3e 3a 9c 8e bd
       0.013358489 -0.026854012 0.4025205 -0.069633916
000160 7e 97 08 3e f1 98 1d bd 75 d3 95 be ba a9 1a 3e
       0.1333904 -0.038475934 -0.2926289 0.15103808
000170 66 c9 2c bd 3e 64 27 3d 1b 82 4c be 60 b4 93 3e
       -0.042184256 0.040867083 -0.19971506 0.28848553
000180 4a 4e 04 bf 21 e8 18 3e f8 96 a8 bd 8a ba fd bd
       -0.5168196 0.149323 -0.0823192 -0.12389095
000190 48 fb 92 be 9c 02 f5 bd 8f 8d 92 be 27 c7 c9 be
       -0.28707337 -0.11963388 -0.28623626 -0.39409754
0001a0 9f 76 f8 3d 2b f3 0c bf de 6c 25 be 29 71 d6 be
       0.12132 -0.55058545 -0.16154811 -0.4188321
0001b0 00 a2 9b 3e e6 80 1b 3e 53 b5 ae 3e 40 17 87 3c
       0.30397034 0.1518589 0.34122714 0.016490579
0001c0 44 af 18 3d f6 39 35 3d 96 12 7d be 48 75 15 3f
       0.03727652 0.04424473 -0.24714121 0.5838208
0001d0 29 9a 52 be b1 88 30 bc a3 f2 a8 3e ae 64 b3 be
       -0.2056662 -0.010774777 0.32997617 -0.3503775
0001e0 ce 8a 38 3e ca af 26 3e d9 3c 0d bf 3a 29 12 3f
       0.180217 0.16277996 -0.5517097 0.57094157
0001f0 64 55 87 3e 88 a5 2a be 70 99 5f bd 59 ef 2a bf
       0.26432335 -0.16664708 -0.05458969 -0.66771466

critic.2.weight f4 [128, 128]
000000 f5 9b 3f be bb 6d c2 bc c9 f4 04 3e 02 d9 85 3e
       -0.18711837 -0.023733964 0.12984003 0.26142126
000010 10 7b 52 be 66 12 e9 3d f1 6f 92 3e 28 15 52 3d
       -0.20554757 0.11380462 0.2860103 0.051289707
000020 d2 0b 07 be 77 c3 8a 3e 72 6a 40 3e 88 cc db bd
       -0.13188103 0.27102253 0.18790606 -0.107323706
000030 93 99 c5 bd a5 5e 15 3e c9 92 23 3e 5a e4 af 3d
       -0.096484326 0.14586885 0.15973963 0.085884765
000040 90 cc 62 be f8 1e 50 be 24 db 64 3d 10 29 96 3d
       -0.22148347 -0.20324314 0.05587305 0.07332051
000050 f6 e6 96 3c c0 21 9d bc da 82 17 3e 84 b9 8e bb
       0.018420678 -0.019181132 0.1479601 -0.0043556113
000060 5e 8d 3b be 49 ec 2a 3e 91 1f 85 be 52 fa 49 3e
       -0.18315646 0.16691698 -0.26000646 0.19724396
000070 aa 10 a5 bc 4f 68 0d be 82 12 a0 bc 7c 66 16 be
       -0.020149548 -0.13809322 -0.019540075 -0.14687532
000080 8f e7 97 be b1 9e 80 be 48 c3 4f 3e 56 61 30 3e
       -0.29668853 -0.25121072 0.20289338 0.1722463
000090 40 29 00 3c 07 46 c8 3d 0b 4e 63 bd 8d c4 85 3e
       0.007822335 0.09778982 -0.05549435 0.2612652
0000a0 36 ee 6f 3e ad 36 1c 3e 6d 72 a4 3d 23 78 66 3d
       0.23430714 0.15255232 0.080296375 0.056266915
0000b0 7f 88 5b 3e 60 51 97 3e 56 10 b7 3d e4 15 47 be
       0.21438788 0.29554272 0.08938663 -0.19441944
0000c0 fc 1e 51 be d0 06 93 be 5a f8 46 3e 0e cb ea bd
       -0.20421976 -0.28716135 0.19430676 -0.11464511
0000d0 b0 32 8e 3d 88 12 38 3e 74 df 0e be e0 7d 69 3e
       0.069432616 0.17975819 -0.13952428 0.22801924
0000e0 2a 14 39 be 82 f0 4b be 89 9b c1 bd fd 11 01 3e
       -0.18074098 -0.19915965 -0.09453494 0.12604518
0000f0 92 a1 fc bc 08 c4 33 be 5e 6c ff bd 2a 81 4a 3e
       -0.030838761 -0.17555249 -0.12471841 0.19775835
000100 42 a5 27 3d e9 76 44 3e e6 a0 21 be ba 7a 4f be
       0.040929087 0.19185986 -0.15784034 -0.2026166
000110 06 d6 38 3c d8 81 66 3e f2 61 54 be d6 da 13 3d
       0.011281496 0.22510469 -0.20740488 0.03609737
000120 8c ca 4e be 56 be 8d 3b 64 c6 f7 bc 8d 78 17 3e
       -0.20194453 0.0043256683 -0.030245967 0.1479208
000130 f8 62 51 3e 9a 61 71 3e ad ce 32 bd ef a2 05 be
       0.2044791 0.23572388 -0.043654133 -0.13050435
000140 2f 23 07 be 82 0f 2a 3d 34 1c 13 bd 23 e3 74 be
       -0.13197015 0.041518696 -0.03591557 -0.23914771
000150 e6 38 90 bc 0d d9 cf bd da 51 c0 bd 92 34 a5 bd
       -0.017605256 -0.10148821 -0.09390612 -0.080666676
000160 d3 c3 10 3e 7e 3d f8 3d 69 ef 38 be 2e bf 66 3d
       0.14137201 0.12121104 -0.18060078 0.056334667
000170 eb 65 3e 3e 48 2a 28 be fa 04 c8 3d fc 6a b3 3d
       0.18593566 -0.16422379 0.09766574 0.0876064
000180 27 d4 89 bc 9e 12 93 bc d1 d6 25 be 24 f7 fc bd
       -0.016824795 -0.017953213 -0.16195227 -0.12351826
000190 77 7c 20 3e 42 41 66 3e e3 14 48 3e e4 17 65 3e
       0.1567248 0.22485831 0.19539218 0.22372395
0001a0 76 ad 5b be 92 67 e8 bb 5e 31 db bd a8 b1 29 be
       -0.21452889 -0.0070924247 -0.107027754 -0.16571677
0001b0 1e 5a 14 bc bd db 12 be ad b9 b3 3d b0 22 84 3e
       -0.009054689 -0.14341636 0.08775649 0.25807714
0001c0 03 91 88 3e a8 a6 45 be 7d 8b c9 3d 4a fa 1c 3e
       0.26673135 -0.19301856 0.098410584 0.15329853
0001d0 bb 8c 84 bd d9 ee 65 be 12 38 1e bd 67 db 20 bd
       -0.06472155 -0.22454394 -0.03862769 -0.03927174
0001e0 6b 5b 5b 3d 07 2c 71 3e 9f e5 6d 3d 15 82 12 3e
       0.05355398 0.23551951 0.058080312 0.14307435
0001f0 c2 1d b2 bd a4 e9 ef bd 54 66 70 3e 34 10 91 bc
       -0.08697082 -0.11714485 0.23476535 -0.017707922
000200 6d 7c 0f 3e 3d d0 46 3e 81 48 47 be ed 7b c0 bd
       0.14012308 0.19415374 -0.19461252 -0.09398637
000210 8a a1 59 3d 40 12 08 be 31 f8 ba bd 7a 00 07 be
       0.05313257 -0.13288212 -0.0912937 -0.13183776
000220 74 b2 99 3d d6 b7 1d be 7c 83 2f be 83 a7 a5 3d
       0.0750474 -0.15402159 -0.17140001 0.08088591
000230 51 08 02 3e 32 4a 81 3d d1 e8 84 be 94 7c 65 bd
       0.12698485 0.0631298 -0.25958875 -0.05602701
000240 87 b0 18 3e 5c b8 b3 3e 19 eb 11 be 67 38 02 3e
       0.1491109 0.35101593 -0.14249839 0.12716828
000250 58 0c 94 bd a8 06 56 be 22 e1 bf be e9 8a f5 bd
       -0.07228917 -0.20900977 -0.3747645 -0.11989386
000260 4d be d5 bb 4b 63 03 be 4d 5e fb 3d a3 6b ed bd
       -0.0065229298 -0.12830846 0.12273846 -0.11592796
000270 30 95 02 3d 37 a2 e8 3d d9 5f 97 3e 04 7b 17 3e
       0.031880558 0.11359065 0.29565313 0.1479302
000280 65 0e 28 3f cc bb 10 3e 73 ce e9 bd 8c ca 2b be
       0.65646964 0.14134139 -0.1141633 -0.16776484
000290 e3 94 24 3e e5 42 60 bd 25 ea 33 3f 8c 24 a3 bd
       0.16072421 -0.054751296 0.7027915 -0.07965955
0002a0 fe 57 15 be 2c 3b a3 3d 4f bf 31 be 64 73 67 be
       -0.14584348 0.079702705 -0.17358135 -0.22602612
0002b0 b1 5b 95 be 0c d9 1f be 51 3d 55 be c8 8a 0e 3e
       -0.29171517 -0.1561014 -0.20824172 0.13920128
0002c0 cf b0 d5 3d 12 dd 75 3e 71 59 95 bd e2 f9 45 be
       0.10434114 0.24010113 -0.0729245 -0.19333604
0002d0 e0 f7 af 3c 6f 01 cb bd 14 89 6a be a9 ed 45 be
       0.0214805 -0.09912383 -0.22903854 -0.19328941
0002e0 08 20 a6 3d 51 dc 46 3e 76 3c 4a 3f e5 61 3f be
       0.08111578 0.19419982 0.78998506 -0.18689688
0002f0 4d 6b 01 bf 89 00 f0 3d e9 3e e5 3d 93 2d 1f be
       -0.50554353 0.11718852 0.1119364 -0.15544729
000300 22 69 e0 bc 91 13 17 be 97 70 ce bd 7e 79 30 3e
       -0.027393881 -0.14753558 -0.100800686 0.17233846
000310 5e 3b 81 be 21 cd be bd de ac 45 3d 2f a2 e1 3d
       -0.25240606 -0.09316469 0.048260562 0.11017262
000320 3a a5 81 3f b1 5d ec bd e8 51 05 3e f4 65 37 be
       1.0128548 -0.11541308 0.13019526 -0.17909986
000330 8c ad 73 be 02 19 69 be 43 36 99 3d bd 36 f6 3d
       -0.23796672 -0.22763446 0.07481053 0.12022159
000340 cf 63 f8 3d 6c fd b1 be 61 c7 1e 3e 1b 35 de 3e
       0.12128412 -0.34763658 0.15505745 0.4339989
000350 5c b5 be bb c8 08 22 3e 5a 5f 0c 3d f9 3f fa bb
       -0.0058199596 0.15823662 0.03427062 -0.0076370207
000360 4d eb 17 bd 9e 6a b2 be ee da 6e 3e f9 a5 0a bd
       -0.037089635 -0.34846967 0.23325703 -0.03384969
000370 04 c4 42 be 39 30 04 3e b0 1a 21 3d 48 d8 ac 3c
       -0.19020087 0.1290902 0.03933209 0.021099225
000380 b3 99 7c 3e 84 9c 43 be 74 e7 6e 3e e0 60 cd bc
       0.24668007 -0.19102675 0.2333048 -0.025070608
000390 40 57 25 be ab d9 7c be 8f 9e 86 be bc 74 63 be
       -0.16146564 -0.24692409 -0.26292846 -0.222125
0003a0 99 2b 85 3d 18 cf 76 3e 60 8b df 3d 3c 37 7d 3f
       0.06502456 0.24102437 0.109152555 0.98912406
0003b0 1f 41 d6 bb 1d ad b6 3d 0a 18 9e bc 0d bb d6 bd
       -0.0065385248 0.089197375 -0.019298572 -0.10484896
0003c0 bf 9f c9 be 19 1c f4 3d 82 83 c9 be 6f fc ac bd
       -0.3937969 0.11919422 -0.39358145 -0.084465854
0003d0 b6 a0 03 3e d8 0f 29 3d 12 a2 a6 3d 4e 46 13 be
       0.12854275 0.041274875 0.08136381 -0.14382288
0003e0 c7 e4 2b bf c1 2d 91 bd 8e f2 70 bc d4 99 51 be
       -0.6714596 -0.07088805 -0.014706267 -0.20468837
0003f0 12 b6 18 3e de cf 0f 3e d8 80 8c bd f7 fb 9c 3e
       0.14913204 0.14044139 -0.068605125 0.30660984

critic.2.bias f4 [128]
000000 54 6f 1d 3e e1 a7 60 be 08 2a f8 bb ce 81 17 3d
       0.153745 -0.2193904 -0.00757337 0.036989026
000010 22 b3 b9 bd c4 6f b8 bb e9 e2 22 3e 77 10 b8 3d
       -0.0906737 -0.005628558 0.15906872 0.089875154
000020 38 fa db 3c f0 df 50 3e e8 2d f7 3d d8 89 15 3e
       0.026852712 0.20397925 0.12069303 0.14603364
000030 7e 66 2d 3e c7 08 ae bd f5 54 6d be 6a d8 45 3d
       0.16933629 -0.08497768 -0.2317694 0.04830209
000040 14 8c 87 3e 90 66 4f 3d 5a 58 48 3e f0 bc 03 3e
       0.2647406 0.05063492 0.19564953 0.12865043
000050 85 a4 c0 3d 29 ba 29 bd 08 a6 63 3d 14 f0 88 be
       0.094063796 -0.0414373 0.05557826 -0.26745665
000060 65 df 3b 3e 1e a5 7d 3e 4a 40 3a 3e a1 67 33 be
       0.18346937 0.24770018 0.18188587 -0.1752
000070 36 21 2b 3e 17 47 11 3e 17 1d 03 be 79 69 86 3d
       0.16711888 0.14187275 -0.12804066 0.06563086
000080 0b 4c b5 3d 9d 98 e9 3c dd fd 2b 3e f5 a6 51 be
       0.08852395 0.028515154 0.1679606 -0.20473845
000090 89 3b 5d be 0d c8 4a bd 3b 9d 35 be 81 d2 4c 3e
       -0.21604742 -0.04950719 -0.1773576 0.20002176
0000a0 61 eb 6a 3e 0e 01 88 3d 09 7f b9 3d 73 86 15 3e
       0.22941352 0.06640826 0.09057433 0.1460207
0000b0 e1 b2 a6 3d d8 3a 8b be 67 d3 12 be 29 ea 3c 3d
       0.08139587 -0.27193332 -0.14338456 0.04612175
0000c0 b3 ea f0 3d 87 8e 0a 3e e1 4e c3 bd 31 fe 34 be
       0.11763515 0.13530932 -0.09536529 -0.17675091
0000d0 1b ba fe 3d bf 5b 12 be 76 54 66 3e 46 dd 4d 3e
       0.124378406 -0.14292811 0.22493157 0.2010394
0000e0 98 a2 18 be 1f e6 f6 3d 51 79 ec 3d 36 00 60 3e
       -0.14905775 0.12055611 0.11546577 0.2187508
0000f0 b3 7f b3 bd 1f 24 47 be f7 a0 69 be d5 4c 1f 3e
       -0.08764591 -0.19447373 -0.2281531 0.15556653
000100 4d 4c 6a 3e 27 dd 82 bd b6 20 b2 bd a4 c1 db bd
       0.22880669 -0.06389838 -0.08697645 -0.107302934
000110 ae f5 81 3d e7 55 52 3e 8e 07 76 3e 10 33 d9 ba
       0.06345688 0.20540582 0.2402632 -0.0016571004
000120 9f 73 7f 3e f5 bf f0 bd 76 22 f7 bd 9a 1d f7 bd
       0.2494645 -0.11755363 -0.1206712 -0.12066193
000130 6b c7 04 be c1 fd 3e 3e f8 08 88 be 21 71 b1 bd
       -0.12966697 0.18651487 -0.26569343 -0.08664156
000140 59 3c 00 3e 91 e6 d8 bd c5 6c 64 be 6f aa 3e 3d
       0.12523021 -0.10590852 -0.22307117 0.046549257
000150 86 4c 30 be 17 eb b3 bd e9 29 10 3e ae b4 47 be
       -0.17216691 -0.08785074 0.14078487 -0.19502518
000160 c5 c9 c1 bd 07 88 f1 3d b6 98 0b 3e 87 c1 83 bd
       -0.094623126 0.11793523 0.13632473 -0.06433397
000170 5e b6 2c be 72 fb 75 3d 08 c3 8e 3d 84 7c 28 be
       -0.16866443 0.06005425 0.06970793 -0.16453749
000180 38 cb 07 be d7 8c a3 3d 87 47 65 be e5 38 a3 3c
       -0.13261116 0.079858474 -0.22390567 0.01992459
000190 ee 6e 55 bd 9f 5f 03 bd 38 27 54 bd 7f dd a3 bd
       -0.052107744 -0.032073613 -0.051795214 -0.080012314
0001a0 92 8b 12 3e 35 ff 01 3e 1e aa 57 3d 00 17 04 be
       0.14311054 0.1269501 0.05265247 -0.12899399
0001b0 46 01 2e 3e 6b 09 04 3e 3b 1a 17 be 77 71 5b be
       0.16992673 0.12894218 -0.147561 -0.21430002
0001c0 f5 c4 2c 3e 3e e2 99 bd ef b0 08 3e 22 df aa bd
       0.16872008 -0.075138554 0.13348745 -0.083433405
0001d0 8b 54 f5 3d af 71 28 3e 19 dc 9e 3d 5d 1f ff 3c
       0.11979016 0.16449617 0.07756824 0.031142885
0001e0 7f 9a 1a 3e 09 ad 14 3e 09 d1 9e 3b 0e 8c d7 3d
       0.15097998 0.14519133 0.0048466963 0.1052476
0001f0 65 56 2c be 68 71 66 be ab f9 09 be 84 9d 40 be
       -0.16829832 -0.22504199 -0.13474147 -0.18810087
